data.pth (torch, 8151 bytes, 6 tensors)

l1.weight f4 [8, 104]
0.64266485 -0.4190301 0.2134825 0.32565564 0.04446001 0.39782783 0.18570554 0.80942225
0.37148753 -0.8542697 0.2215217 0.41378817 0.88600963 0.49763566 0.7571293 0.7687463
0.35359374 0.4157293 0.86327904 0.28537688 0.8108128 0.56074554 -0.082180955 0.3334362
-0.492954 0.37551686 0.51574075 1.2022061 -0.55319226 -0.83610976 -0.116399914 0.12410377
-0.20833147 0.44154608 0.91903305 0.45438936 0.008812682 -0.85387856 -0.42312458 -0.8535843
-0.85262734 -0.6331249 -0.49623337 -0.3526283 0.9904718 0.09220888 0.34268066 0.23723507
-0.54041344 -0.44144756 -0.5678585 0.5669531 -0.5253133 -0.4094189 0.14272507 0.06658851
0.20202655 -0.7067083 -0.22438334 -1.2776008 -0.01750039 1.2403095 0.64393693 0.37167978
0.45123202 0.8400038 -0.81785417 0.7912761 0.12809305 -0.44147465 0.42935243 0.87255675
0.953892 0.62977934 -0.16453905 -0.47598526 0.040083185 0.63751537 -0.46584028 1.2498959
-0.31774086 -0.8541508 -0.074292056 0.67862016 -0.5359128 0.5389462 0.5701861 -1.1055843
-0.46968886 -1.2710683 -0.84159166 0.66778857 0.22915937 -0.97579825 0.837466 0.49888948
1.2303209 0.36119124 0.1724 0.2620897 0.74319345 -0.853063 0.4613038 0.47470415
-0.20736489 0.267101 0.3707364 0.3982621 -0.67688644 -0.6894469 0.00087588734 -0.6137284
-0.2833492 1.0701168 0.0038505036 0.47994328 1.1284789 -0.5007787 -0.06047094 -0.5022399
0.46316507 -0.4950743 -1.2310429 0.5344764 -0.5242226 0.04630397 0.12529184 -0.32735264
0.1955281 -0.1174114 -0.39027843 -0.9336257 0.27530012 0.74670094 0.27550122 0.006324865
-0.034819353 -0.46403244 1.2282863 0.26367828 1.1599331 0.8421637 0.6992458 0.7755599
0.8098857 0.63046503 0.48552713 0.47692335 -0.30650666 0.7207165 0.3692167 -0.06556301
0.27665815 0.49255884 0.29218087 0.6347796 0.66550654 0.45713526 1.0627259 0.71176744
0.035827655 0.53111 0.29411292 0.049686793 0.46941477 0.05091221 -0.44436014 -0.45841795
-0.20154521 -0.9651239 -0.22518817 -0.44756538 -0.0045493846 0.37126362 -0.23813514 -0.45262253
-1.252625 0.6461203 0.27225146 0.29681483 0.33784026 -0.3087012 -0.09873343 0.88845575
0.2842542 1.1092656 0.46768087 -0.45862967 0.095654875 -0.40578938 -0.647354 -0.41757265
0.7559037 0.7396453 0.5921118 -0.086335294 0.47146824 0.95099276 -0.9172603 -0.40020853
0.008373629 -0.073350966 0.5644106 0.048135724 -0.34429353 0.94112504 0.8264845 0.42981562
0.56243503 -0.15821235 0.6171988 -0.15880515 -0.081669405 -0.36426598 0.046746895 0.3700889
0.48914912 -1.0578798 -0.23362547 -0.22514799 -0.123381816 0.68770486 0.043368675 -0.63734907
-0.5135859 0.5719195 0.70721084 -0.30499157 -0.19006059 -0.398771 0.3238554 0.24311674
0.10336317 -1.2447312 0.660036 0.4896617 0.110192984 -0.8383355 -0.2639092 -0.22155711
0.23168918 0.1860647 -0.22292507 0.23677291 -0.35606015 0.80880004 0.41107082 0.71354216
0.72367877 0.4529421 0.45106685 1.1690718 0.5792489 0.41977888 0.78475916 1.0356758
00000000: af85 243f 1d8b d6be 289b 5a3e 56bc a63e
00000010: b31b 363d 17b0 cb3e 9829 3e3e 4c36 4f3f
00000020: 9d33 be3e 6bb1 5abf 96d6 623e 0bdc d33e
00000030: 87d1 623f 1aca fe3e 3ad3 413f 8fcc 443f
00000040: 3d0a b53e 79da d43e dbff 5c3f eb1c 923e
00000050: 6d91 4f3f 058d 0f3f 7d4e a8bd 26b8 aa3e
00000060: 7764 fcbe bf43 c03e 9607 043f e4e1 993f
00000070: 029e 0dbf 4a0b 56bf 1463 eebd 1e2a fe3d
00000080: d854 55be 5412 e23e c045 6b3f b9a5 e83e
00000090: 1163 103c c997 5abf c9a3 d8be 8084 5abf
000000a0: c945 5abf 7914 22bf 4d12 febe b28b b4be
000000b0: 8f8f 7d3f 02d8 bc3d d773 af3e c0ed 723e
000000c0: 8958 0abf 6a05 e2be 2d5f 11bf d723 113f
000000d0: ef7a 06bf 5b9f d1be 8526 123e 8f5f 883d
000000e0: 0ce0 4e3e d6ea 34bf bfc4 65be 6c88 a3bf
000000f0: fa5c 8fbc 76c2 9e3f 0dd9 243f d04c be3e
00000100: e207 e73e 7d0a 573f e45e 51bf 1291 4a3f
00000110: d32a 033e f708 e2be 15d4 db3e e15f 5f3f
00000120: 4432 743f 3839 213f ed7c 28be 57b4 f3be
00000130: 442e 243d 3534 233f 9e82 eebe 97fc 9f3f
00000140: eeae a2be a0a9 5abf 6f26 98bd 0dba 2d3f
00000150: 9531 09bf 61f8 093f b7f7 113f c983 8dbf
00000160: 0f7b f0be 5eb2 a2bf 8d72 57bf 31f4 2a3f
00000170: c1a8 6a3e eacd 79bf 2c64 563f 716e ff3e
00000180: 287b 9d3f 0fee b83e a089 303e 9f30 863e
00000190: ed41 3e3f 5662 5abf 0330 ec3e 6c0c f33e
000001a0: 7657 54be 76c1 883e 29d1 bd3e 03e9 cb3e
000001b0: 6e48 2dbf 987f 30bf ce9b 653a 4e1d 1dbf
000001c0: 2513 91be 96f9 883f bb58 7c3b 20bb f53e
000001d0: ff71 903f 0833 00bf 60b0 77bd cb92 00bf
000001e0: f923 ed3e 617a fdbe d092 9dbf 72d3 083f
000001f0: 7433 06bf 3ba9 3d3d 814c 003e c49a a7be
00000200: 8538 483e 6375 f0bd 93d2 c7be 1802 6fbf
00000210: 23f4 8c3e cb27 3f3f 7f0e 8d3e d040 cf3b
00000220: bd9e 0ebd a995 edbe 7c38 9d3f d700 873e
00000230: b078 943f 0a98 573f c601 333f 188b 463f
00000240: ab54 4f3f 2866 213f 0397 f83e 4c2f f43e
00000250: 71ee 9cbe e080 383f f909 bd3e e645 86bd
00000260: 23a6 8d3e ac30 fc3e bb98 953e ea80 223f
00000270: a35e 2a3f a20d ea3e 6707 883f 6436 363f
00000280: 05c0 123d d3f6 073f f895 963e 6184 4b3d
00000290: 2257 f03e 5289 503d 2c83 e3be c2b5 eabe
000002a0: de61 4ebe 5c12 77bf ba97 66be 4a27 e5be
000002b0: 0113 95bb 4416 be3e b3d9 73be 24be e7be
000002c0: 0456 a0bf 2468 253f 8b64 8b3e 1df8 973e
000002d0: 66f9 ac3e 150e 9ebe c134 cabd d671 633f
000002e0: c489 913e 6afc 8d3f de73 ef3e 82d1 eabe
000002f0: b4e6 c33d a0c3 cfbe feb8 25bf 15cc d5be
00000300: e882 413f 6559 3d3f a494 173f 8fd0 b0bd
00000310: 4964 f13e 4374 733f 92d1 6abf 22e8 ccbe
00000320: 8c31 093c 0839 96bd 377d 103f f729 453d
00000330: 3e47 b0be 92ed 703f 7d94 533f cb10 dc3e
00000340: befb 0f3f 6b02 22be be00 1e3f d19d 22be
00000350: 4a42 a7bd 1281 babe ac79 3f3d 4b7c bd3e
00000360: c171 fa3e 9b68 87bf 843b 6fbe 328d 66be
00000370: 9baf fcbd 6d0d 303f 5aa3 313d 4f29 23bf
00000380: 5e7a 03bf 5169 123f c50b 353f db27 9cbe
00000390: 3e9f 42be b62b ccbe 60d0 a53e 98f3 783e
000003a0: 12b0 d33d 5a53 9fbf 1ff8 283f f0b4 fa3e
000003b0: dcac e13d 289d 56bf 1b1f 87be dedf 62be
000003c0: ee3f 6d3e bf87 3e3e 7846 64be 9974 723e
000003d0: 844d b6be 850d 4f3f e077 d23e b3aa 363f
000003e0: 0343 393f 07e8 e73e 3cf2 e63e 25a4 953f
000003f0: a849 143f 42ed d63e fae5 483f 0691 843f

l1.bias f4 [8]
0.8540901 1.3180007 1.1932867 0.621887 1.0462525 0.94440204 0.7157439 0.85485756
00000000: a6a5 5a3f 3fb4 a83f 9ebd 983f fd33 1f3f
00000010: 9aeb 853f 55c4 713f fe3a 373f f2d7 5a3f

l2.weight f4 [8, 8]
2.4055011 -0.81127286 -0.7247609 1.6529477 1.8145783 1.3517597 0.32179135 1.2204334
-0.019341333 1.0555148 -0.45720455 -2.0137086 1.9609113 0.99043775 0.32483304 1.4460765
-0.4747206 -0.256651 0.4434571 0.98107684 0.40930498 -0.55027306 -0.92728615 0.99113476
-0.47943643 0.28041604 1.6559933 1.560529 -1.4723939 -1.025095 1.4965004 1.5701358
-1.6236391 0.88468105 0.7781849 0.67681897 0.7103337 -1.604958 1.7384969 1.8581067
0.8149533 0.8709725 2.4871743 0.4207698 0.7256095 -0.4680027 -1.3319027 -0.7071898
0.00094533304 2.0671568 0.38217643 -0.797725 0.057255175 -0.12258198 2.3956127 -0.6516522
-0.9411789 1.8356489 0.47122067 -0.2667021 0.08887975 2.1941264 -1.467339 0.9997269
00000000: bbf3 1940 94af 4fbf ee89 39bf ca93 d33f
00000010: 1a44 e83f 7606 ad3f d6c1 a43e 2937 9c3f
00000020: b771 9ebc 1c1b 873f b716 eabe 9ae0 00c0
00000030: 24ff fa3f 548d 7d3f 8450 a63e 0919 b93f
00000040: 940e f3be c367 83be cf0c e33e da27 7b3f
00000050: 6c90 d13e b2de 0cbf a062 6dbf 02bb 7d3f
00000060: b178 f5be b192 8f3e 97f7 d33f 6abf c73f
00000070: 6777 bcbf 5036 83bf 538d bf3f 36fa c83f
00000080: 68d3 cfbf 757a 623f 2037 473f 0244 2d3f
00000090: 6ed8 353f 446f cdbf 1187 de3f 71d6 ed3f
000000a0: c8a0 503f 0ef8 5e3f dd2d 1f40 246f d73e
000000b0: 8bc1 393f 0d9e efbe ca7b aabf 640a 35bf
000000c0: 3ad0 773a 4c4c 0440 a1ac c33e b537 4cbf
000000d0: 6784 6a3d 430c fbbd b851 1940 aed2 26bf
000000e0: 1af1 70bf 8bf6 ea3f d643 f13e 2d8d 88be
000000f0: 9606 b63d 916c 0c40 c4d1 bbbf 1aee 7f3f

l2.bias f4 [8]
0.38509718 0.5006826 -0.17681628 0.6448441 0.028738735 0.7356805 0.9611918 0.18680148
00000000: 752b c53e bc2c 003f 540f 35be 8114 253f
00000010: 7f6d eb3c 8f55 3c3f aa10 763f e348 3f3e

l3.weight f4 [30, 8]
-1.5636923 0.5440146 -2.158802 -0.09642462 -0.7787796 0.25957543 -0.1866614 0.9296227
0.33701813 -1.2092988 0.69205165 0.5619967 -0.18960606 -2.2524085 -0.6701585 -1.1066586
-2.2612298 -1.6432893 -0.29460794 0.28484824 0.17613652 0.33929247 0.35128474 0.264949
-0.34922588 0.34066865 -0.16959152 -0.6985498 -0.48742482 0.071631625 -0.7954123 0.41560122
-1.1881614 -1.8990395 0.9016708 0.38299987 0.09458894 0.3115375 -0.824935 0.18460108
0.44127423 0.48794597 -1.5697904 -1.6586756 -2.0116224 0.19941363 -0.52756715 -1.7072027
0.090436615 0.39372423 0.09869499 -0.069964975 -0.012176126 -0.3234464 -0.89940697 -1.7899204
-0.49143147 0.25892472 0.67267895 0.34793505 0.25252652 -2.3217797 -0.3732776 -0.33424222
-0.04421032 -1.023408 -2.1055698 0.4025495 0.27771965 -0.78285104 0.20080426 -2.1334236
-0.45199612 -1.4039613 -1.5886024 0.071330115 -0.15525019 0.69763094 -0.106230356 -0.24031202
0.18348935 0.27118173 -2.4932883 -1.7679236 -2.13892 -0.6665198 -0.15165935 0.92824775
-0.69499284 -0.029891962 0.06934837 0.28951603 0.23826677 -0.13470253 -0.79078573 -0.091442496
0.5127348 -2.0085738 0.21666868 -0.24557878 -2.17764 0.9805169 -0.843574 -1.9316803
-0.7077383 -1.1973078 -1.5708302 0.35014194 0.4373905 -0.9504331 0.10976125 0.18869704
-0.532357 0.66511464 -2.1135466 -0.65461636 -0.05078271 -2.1550708 0.15193678 0.76167077
-2.1854064 -0.69157284 -2.6424456 0.47271532 0.64094305 -0.56154895 0.5843882 -1.9665803
-0.675574 -2.4841878 0.16159965 0.48807627 0.42087254 -0.056847885 -0.05787921 -1.4356514
-0.54662657 0.4381567 -2.1596935 -1.2596755 -0.568286 0.25293198 0.596599 -0.42023587
-1.4156862 0.37853786 -1.7357415 -0.04215328 0.5038178 -0.14943141 0.15988879 -0.3348882
0.79226863 -0.44493127 -0.55908966 -0.44633704 -1.1956172 -1.4069526 -0.47174966 -1.7807375
0.20164384 -0.9413859 1.1141135 -0.24949461 -0.61114794 0.09102586 -1.6628518 -0.15727156
0.13394022 -0.5971405 -1.0652447 -0.8825038 -1.9955102 0.7266755 -1.4314598 0.34847328
0.39771077 0.8698401 -1.6019552 -1.4092013 -0.7763477 -2.2912593 -1.0583535 0.11948567
-1.0863523 -2.134723 -3.0953164 0.62083995 -0.12231912 0.57480264 0.48010904 -2.4232728
-0.1512886 -1.7925318 0.66131127 0.7205736 -0.49057883 0.37399867 -1.4657637 -1.9302064
-0.4614607 -0.23613806 -2.8230333 0.25743464 -0.9745764 0.17830229 0.9220368 -2.9580884
0.5097809 0.17635684 -0.20714849 -0.63780826 -0.97368777 -0.47134605 -2.6090436 -0.04437351
-0.7702135 0.42585582 -1.5554525 -0.5563259 0.43370137 -2.321051 0.75575924 -1.0495517
0.23456441 -0.71285945 -2.683746 -0.027194818 -2.9896965 0.057314236 0.5680889 -0.31153062
0.20141327 0.06457187 -1.1598341 -0.10218926 -0.40090808 -1.0617447 -0.3605109 0.08226539
00000000: 1227 c8bf 8a44 0b3f d029 0ac0 457a c5bd
00000010: 1a5e 47bf 12e7 843e 2b24 3fbe c1fb 6d3f
00000020: a48d ac3e 4eca 9abf 4c2a 313f 04df 0f3f
00000030: 1728 42be 7627 10c0 828f 2bbf fda6 8dbf
00000040: fdb7 10c0 4e57 d2bf dad6 96be a1d7 913e
00000050: 225d 343e beb7 ad3e 98db b33e 65a7 873e
00000060: bccd b2be 1f6c ae3e 66a9 2dbe 29d4 32bf
00000070: bf8f f9be 9ab3 923d 24a0 4bbf afc9 d43e
00000080: ac15 98bf ba13 f3bf e6d3 663f 8f18 c43e
00000090: d9b7 c13d d881 9f3e f12e 53bf 1108 3d3e
000000a0: b2ee e13e 0ed4 f93e e4ee c8bf 7b4f d4bf
000000b0: 6cbe 00c0 1633 4c3e a40e 07bf 9e85 dabf
000000c0: d536 b93d 3996 c93e 9920 ca3d cc49 8fbd
000000d0: 607e 47bc c49a a5be 893f 66bf 1d1c e5bf
000000e0: e89c fbbe c891 843e b034 2c3f 8b24 b23e
000000f0: 284b 813e 0a98 14c0 3e1e bfbe cc21 abbe
00000100: e115 35bd 09ff 82bf a8c1 06c0 f81a ce3e
00000110: 4531 8e3e ed68 48bf a29f 4d3e 038a 08c0
00000120: 096c e7be 01b5 b3bf 5357 cbbf 8615 923d
00000130: e8f9 1ebe f197 323f 4d8f d9bd 5b14 76be
00000140: a2e4 3b3e 55d8 8a3e 0992 1fc0 524b e2bf
00000150: 11e4 08c0 0ba1 2abf 974c 1bbe a5a1 6d3f
00000160: 0deb 31bf fddf f4bc 8506 8e3d 723b 943e
00000170: 34fc 733e 76ef 09be ef70 4abf 3446 bbbd
00000180: 9642 033f 798c 00c0 65de 5d3e 0179 7bbe
00000190: 745e 0bc0 2803 7b3f 77f4 57bf 4d41 f7bf
000001a0: 562e 35bf 6241 99bf f710 c9bf ce45 b33e
000001b0: a6f1 df3e 954f 73bf 82ca e03d cc39 413e
000001c0: 8c48 08bf f444 2a3f 5944 07c0 f094 27bf
000001d0: 8801 50bd aeec 09c0 5195 1b3e dbfc 423f
000001e0: b3dd 0bc0 eb0a 31bf d41d 29c0 be07 f23e
000001f0: d814 243f acc1 0fbf 779a 153f e7b8 fbbf
00000200: 6bf2 2cbf effc 1ec0 617a 253e 22e5 f93e
00000210: 9b7c d73e 54d9 68bd c012 6dbd 6dc3 b7bf
00000220: b8ef 0bbf 1356 e03e 6b38 0ac0 0c3d a1bf
00000230: 317b 11bf 4d80 813e b6ba 183f 2829 d7be
00000240: 3535 b5bf b7cf c13e c72c debf eba8 2cbd
00000250: 34fa 003f 8c04 19be e3b9 233e 7776 abbe
00000260: 1ed2 4a3f 08ce e3be 8020 0fbf 4a86 e4be
00000270: fc09 99bf 0617 b4bf 2c89 f1be 35ef e3bf
00000280: b97b 4e3e abfe 70bf 459b 8e3f 847b 7fbe
00000290: 3174 1cbf c46b ba3d 54d8 d4bf cc0b 21be
000002a0: a027 093e 33de 18bf f059 88bf c5eb 61bf
000002b0: e16c ffbf 6807 3a3f 133a b7bf 176b b23e
000002c0: bfa0 cb3e d7ad 5e3f de0c cdbf b560 b4bf
000002d0: b9be 46bf fea3 12c0 2178 87bf e7b4 f43d
000002e0: 980d 8bbf 4d9f 08c0 aa19 46c0 5eef 1e3f
000002f0: 7282 fabd 4426 133f dad0 f53e e716 1bc0
00000300: 66eb 1abe af71 e5bf b24b 293f 8377 383f
00000310: 262d fbbe c17c bf3e 259e bbbf 0111 f7bf
00000320: 9444 ecbe 2dce 71be 94ac 34c0 79ce 833e
00000330: d77d 79bf e094 363e 9b0a 6c3f 5251 3dc0
00000340: 0081 023f e396 343e bc1e 54be 6747 23bf
00000350: 9a43 79bf 4554 f1be 92fa 26c0 ffc0 35bd
00000360: b62c 45bf c609 da3e 1119 c7bf 606b 0ebf
00000370: 1b0e de3e 198c 14c0 7079 413f b657 86bf
00000380: a731 703e f57d 36bf 7fc2 2bc0 abc7 debc
00000390: 3057 3fc0 55c2 6a3d 466e 113f f180 9fbe
000003a0: 483f 4e3e 423e 843d 7275 94bf 9a48 d1bd
000003b0: d343 cdbe 40e7 87bf e294 b8be c27a a83d

l3.bias f4 [30]
-0.068585075 0.33595812 -0.15657651 -0.12827708 -0.3504985 0.20358337 -0.4509466 -0.28663528
-0.2907823 0.011810329 0.14702167 -0.12913853 0.334816 0.2165633 -0.0039740847 -0.028292613
-0.17039856 0.28618896 -0.46033913 0.30632967 -0.071156226 -0.413999 -0.3253247 0.3625197
0.17762767 0.2771334 0.03381853 0.2629779 0.080697976 -0.23015949
00000000: 5576 8cbd b402 ac3e 9855 20be 115b 03be
00000010: 8a74 b3be 2978 503e 79e2 e6be dcc1 92be
00000020: 6be1 94be 1c80 413c d98c 163e e43c 04be
00000030: 016d ab3e c5c2 5d3e 0a39 82bb e9c5 e7bc
00000040: f67c 2ebe 5c87 923e 92b1 ebbe 3ed7 9c3e
00000050: 5bba 91bd adf7 d3be f690 a6be 2f9c b93e
00000060: 07e4 353e 6ee4 8d3e 4d85 0a3d 0aa5 863e
00000070: fb44 a53d eeae 6bbe
